Colab notebooks/right_gesture_model.tflite (tflite, 148288 bytes, 6 tensors)

sequential/dense/BiasAdd/ReadVariableOp f4 [50]
00000000: 1b28 0fba e73b 4fbb 853b 4fbb 12cb 55bb
00000010: b036 4fbb 5344 3ebb 0000 0000 653a 4fbb
00000020: c042 733a 583d 4fbb 0000 0000 193d 4fbb
00000030: 96f9 3ebb a0dd 27bb 0000 0000 fc3c 4fbb
00000040: ef06 0ebe 0000 0000 0000 0000 873a 4fbb
00000050: ce37 4fbb da94 5bbb 0000 0000 4c3b 4fbb
00000060: 4e01 5aba e2d4 ccbb 0000 0000 0000 0000
00000070: 0000 0000 0000 0000 ac39 4fbb 0000 0000
00000080: 0000 0000 0000 0000 0000 0000 0000 0000
00000090: 8e31 82ba 0000 0000 d817 15bb 7498 abbb
000000a0: f53b 4fbb 0000 0000 5c34 4fbb 0000 0000
000000b0: 7137 4fbb 0000 0000 0283 68bb 0000 0000
000000c0: 0000 0000 6345 d9bb
-0.0005460993 -0.0031621398 -0.003162117 -0.003262226 -0.003161829 -0.0029032424 0.0 -0.00316205
0.0009279661 -0.0031622257 0.0 -0.003162211 -0.0029140464 -0.0025614277 0.0 -0.0031622043
-0.13869832 0.0 0.0 -0.0031620578 -0.0031618956 -0.003350547 0.0 -0.0031621037
-0.00083162345 -0.0062509635 0.0 0.0 0.0 0.0 -0.0031620068 0.0
0.0 0.0 0.0 0.0 -0.0009932981 0.0 -0.0022749808 -0.0052366797
-0.003162143 0.0 -0.0031616902 0.0 -0.003161874 0.0 -0.0035478477 0.0
0.0 -0.006630586

sequential/dense_2/BiasAdd/ReadVariableOp f4 [3]
00000000: 1974 06c0 4eab 8c3f bedf 663f
-2.100836 1.0989778 0.90185153

sequential/dense_1/BiasAdd/ReadVariableOp f4 [15]
00000000: f4b4 9cbd f739 44bb c4b3 79bc 4479 ae3f
00000010: aa92 b1bb d186 83ba 0012 86be da03 4ebd
00000020: 7182 2fbc 143e 4fbb 8fb0 31bc 1f13 0d40
00000030: 5494 a7bc 8c93 8abc 4839 bdb9
-0.076517016 -0.0029941776 -0.015240613 1.3630757 -0.005419095 -0.0010034685 -0.26185608 -0.050296642
-0.010712252 -0.0031622695 -0.0108453175 2.204292 -0.02045647 -0.016916059 -0.00036091567

sequential/dense/MatMul f4 [50, 714]
00000000: b6db 4cbb 2ed7 a6bc ef5c ba3c 9c9d a4bd
00000010: 9885 fd3c 2f6d a23d 31bd 0ebd cb73 1dbd
00000020: c8a7 973c 6d17 9b3d 92dd 61bc 7fa5 d43c
00000030: 80b1 a3bd 5f11 673c 1c66 513d f0ab 61bd
00000040: d5a5 4d3d 1100 9bbd 0ba6 ac3d a5b5 1ebd
00000050: 4edf a2bd 4e98 a3bd e77a 3abc f9c8 1bbd
00000060: 9766 4a3d d8ea 4ebd af36 0cbc a4d7 a33b
00000070: 7391 833d f159 31bd 406f 8c3c 4084 763d
00000080: fc56 c93a d02e a3bd 38da b0bd 321d d2bc
00000090: 424e e93a f1a9 8d3c 4003 59bd ecb1 953d
000000a0: 3111 91bd 4123 7bbd dc0b 7abd 67b3 063c
000000b0: 54f1 d3ba 19db 67bd dfb1 823d 5bc2 fa3c
000000c0: 7f0d 2bbd 20d4 aabd 950a 4ebd c216 8ebb
000000d0: ef17 aa3b 5596 64bd b8cf a7bd a357 d8bc
000000e0: 147d f43c 4e1c 56bd 17e4 7cbd 91f3 3d3c
000000f0: 7198 01bd f4d8 f4bc 534b 99bd 2011 5abc
00000100: 1c81 a23d 0b3d 44bd ce99 e6bb baf2 4f3d
00000110: 587c 673b 06c2 71bd ee04 b2bd 3fa5 323d
00000120: 1d86 a03d ce17 233d aea1 a53d 51f1 7b3d
00000130: 6188 94bc 4a80 acbd 9185 39bd cffc b03d
00000140: de44 47bd a340 8ebd 4eb7 593c 5f62 63bd
00000150: ca83 f53b 246e 24bd c38e 8e3d 0b79 11bd
00000160: a692 9cbd 5342 3c3a 2c14 1cbb 81b5 81bd
00000170: 1611 113c ded2 873c 9a2b 78bd 3aa5 0b3d
00000180: 4db1 26bc fdbe a63c 5504 d03b fc8a f0bb
00000190: 7448 74bc 5375 9abc 31bc 373d 091f 933c
000001a0: 3154 63bb 4ee5 933d d2fd 823d c0ad de3c
000001b0: a413 163d fb93 37bd 56c9 453c 22c8 573d
000001c0: d22a 6ebd cddb d73c 0e7d 823d 5195 19bc
000001d0: 2c58 a4bd 50d5 98bd a70e 9d3d b793 9e3d
000001e0: 9022 a5bd 10dd 8f3d 2ebd 76bd 2b92 603d
000001f0: bb59 6bbc 9bf1 003d aad7 28bc a8ca aebd
00000200: a8c4 68bd 7c91 2a3d 8723 b13d 252d b03d
00000210: 093b 00bd 8d55 803d 7c35 3ebb 4b8e 97bd
00000220: 2b58 afbc 1d12 5dbc d9ca cfbc 239a 07bd
00000230: bef7 553c af8b ae3d 9ae8 95bd df3d c93c
00000240: 879c 17bd 26ce 77bd 8811 56bc c11e 64bd
00000250: f90e ebbb f16a 7ebc e8b5 e3bc 9e97 aabd
00000260: 59b0 b1bd 647a b13d a1f4 983d 9dad 0ebb
00000270: a260 943d 284f 0dbd 3ebf 61bc ba66 51bd
00000280: 204e 943d d8e7 42bd 7e8b fbbc 787a 2ebd
00000290: 9afa 293d 8e8c acbd f537 903d 6341 3d3b
000002a0: be60 0c3d 9207 24bd 1dbf 9e3d fdd2 183d
000002b0: abbb 283d b587 24bc 7e12 4cba b1a1 5d3d
000002c0: ec95 af3d 8c48 44bd 6aa5 8e3c 077b 60bd
000002d0: 5d3e 07bd d450 34bd 17e1 8c3c defa 973c
000002e0: 3b8f c53c ec13 633c 6463 1b3d 0f97 13bc
000002f0: 9c3b 3d3d ac2e 6ebd d14b 96bd c2ac 4a3b
00000300: 9272 91bd 75d3 813d 8148 433d fa53 1e3d
00000310: 03ad 993d aec7 c7bc 3398 84bd 6a78 0c3d
00000320: a1b1 5bbd 5ba1 68bc 63c2 afbd 4fef 93bd
00000330: 4f81 d3bc 9b3e 013d 7b04 4e3c 19e0 4bbd
00000340: 6ddc 38bd 06ee 9c3c 0902 dd3b 1bf9 963d
00000350: e34b 493d ea14 c8bc 84bc 4dbd ee5f 08bd
00000360: e47d a93d fbd0 273d b4fa ba3c 9954 5d3c
00000370: eaa4 8b3d ba9f 573d 3006 843d 1e8a 533d
00000380: 4277 0d3d a434 89bd f406 a53d eb6b 49bd
00000390: 1c36 74ba b356 c6bc 92fd 8abd 99e3 aabc
000003a0: b406 4fbd 4e5e 15bd 46c7 61bd 31b0 443b
000003b0: 338f 833d 2035 963d 96be 4e3d 7302 153d
000003c0: d133 053c c83e b33d 93e7 8fbd a0d1 87bd
000003d0: d945 d03b 8275 663d 38ff 55bc 4bcb 323c
000003e0: 2f29 3f3d a2bd a33d 7616 e93c 6bd3 5ebd
000003f0: 9479 743d ec5d b23d d20e b0ba 796e 223d
-0.0031258888 -0.020366278 0.022749392 -0.08037874 0.030947492 0.07930981 -0.034848396 -0.038440507
0.018512622 0.075728275 -0.013785737 0.025957821 -0.0799284 0.014103263 0.05112277 -0.055095613
0.050206978 -0.07568372 0.08430108 -0.03874745 -0.07952748 -0.07988034 -0.011381841 -0.03803346
0.049414244 -0.050516933 -0.008557959 0.0050000716 0.064242266 -0.043298665 0.017142892 0.060184717
0.0015361006 -0.07967913 -0.08635372 -0.025648687 0.0017799812 0.017292948 -0.052981615 0.073093265
-0.07083357 -0.061312918 -0.061046466 0.008221484 -0.0016169944 -0.056605432 0.063815825 0.030610254
-0.041760918 -0.08341241 -0.05030306 -0.004336209 0.0051908414 -0.05580743 -0.08193916 -0.026408976
0.029844798 -0.052273087 -0.06174096 0.011593715 -0.03163952 -0.029888608 -0.0748507 -0.013309747
0.07934782 -0.047909778 -0.007037378 0.05076859 0.0035321917 -0.059022926 -0.086923465 0.043614622
0.0783808 0.039817624 0.080874786 0.061509434 -0.018131437 -0.08422907 -0.045293394 0.086419694
-0.04864966 -0.06945922 0.013288332 -0.055513736 0.007492517 -0.0401441 0.069608234 -0.035515826
-0.076451585 0.0007181514 -0.0023815734 -0.06333447 0.008854171 0.016580041 -0.060588457 0.03409312
-0.010174108 0.020354742 0.0063481727 -0.007340787 -0.014909852 -0.018854773 0.044857208 0.017959135
-0.0034687633 0.07221471 0.06396069 0.02718246 0.036639825 -0.04481886 0.012071928 0.052681096
-0.058146305 0.026349926 0.063715085 -0.009373979 -0.0802463 -0.07462561 0.0766881 0.07743018
-0.08063233 0.07024586 -0.06023901 0.054826897 -0.014364655 0.031480413 -0.010305325 -0.08534747
-0.05682817 0.04164265 0.086493544 0.08602361 -0.0313063 0.062663175 -0.0029023578 -0.07400187
-0.021404346 -0.013493088 -0.02536528 -0.03310598 0.013059555 0.08522736 -0.07319756 0.024565635
-0.03701451 -0.060499333 -0.013065703 -0.05569339 -0.0071734157 -0.0155284265 -0.0277967 -0.083297
-0.08676214 0.08665922 0.07468534 -0.0021770962 0.07244994 -0.034499317 -0.013778506 -0.05112336
0.07241464 -0.047584385 -0.030706163 -0.042597264 0.041498758 -0.08425246 0.07041923 0.0028878085
0.034271948 -0.040046282 0.07751296 0.03731059 0.0411946 -0.010042121 -0.0007784738 0.05410928
0.08573517 -0.04792075 0.01741286 -0.054804828 -0.03301846 -0.044022396 0.017197175 0.01855224
0.02411615 0.01385973 0.037936583 -0.009008183 0.046199426 -0.05814998 -0.073386796 0.0030925726
-0.07101931 0.0633916 0.047676567 0.038654305 0.075037025 -0.024387207 -0.06474342 0.034294523
-0.053636197 -0.014198626 -0.08581998 -0.07223379 -0.025818495 0.031553846 0.01257431 -0.049774263
-0.04513209 0.019156467 0.0067446274 0.07371732 0.049144637 -0.024424035 -0.05022861 -0.03329461
0.08275965 0.040970784 0.022824623 0.013508939 0.06818564 0.05264256 0.06446493 0.05164539
0.03453756 -0.066994935 0.08057967 -0.049175184 -0.0009315924 -0.024211263 -0.06786646 -0.02086048
-0.050543502 -0.03646689 -0.055121683 0.0030012245 0.064237975 0.073343515 0.050474726 0.03637929
0.00813003 0.08752209 -0.07026591 -0.0663178 0.0063559827 0.056264408 -0.013061337 0.010912727
0.046670135 0.07995154 0.028453093 -0.054400843 0.05968626 0.087093204 -0.0013432151 0.039656136

sequential/dense_1/MatMul f4 [15, 50]
00000000: 74e9 f83d 4b8d 81be 4e8b b8bd 14fc 55be
00000010: 70e1 973c 6522 06be f02b 92bc 18f5 c0bd
00000020: 4469 4dbe 3c88 1e3e cacb b3bd e81d 523e
00000030: 70af c63c e065 3ebc 3d8e 94be 40b5 babb
00000040: 5f75 cd3f e423 9f3d 24bd c43d 3490 94be
00000050: d63c 833e 7409 8b3e fe2f 403e 0689 963e
00000060: e8af 663e 8e90 e5bd 3b74 0abe 7452 573e
00000070: ccc2 543e af76 82be 52b6 1e3e 50cd fa3c
00000080: 0508 98be f0e3 983e 0c28 8a3e ba20 8d3e
00000090: 1fa2 30be ee25 043e fcd4 5dbe 2afb ebbd
000000a0: 369c 213e 7e23 2a3e 3892 973d f87f 4d3d
000000b0: 967c 903e f8d2 49be b822 a53d 28ad 6d3e
000000c0: 285e 0b3e 6c4c 67be 3229 173e 977c 0e3c
000000d0: 625f c13d b43b 5fbe 528c 4bbb 95e5 4d3d
000000e0: caa4 8fbe 9aa9 c0bd 1da8 acbd 9111 763e
000000f0: 60c4 213c 90c9 6b3d 2447 9e3e 40ab e8bd
00000100: 60d3 133d 1d8b 603e ac5f 02bd 10d0 793e
00000110: a0bc 793d b984 543e 37d2 2c3e 0db0 55be
00000120: b840 08be 6e1c 193e ad9a 723e 636f 6d3d
00000130: 24d4 29be 0090 7abb 3865 1c3e 600c 793c
00000140: e583 863d f031 c13c 2069 f7bc b8fe 853e
00000150: 8075 093c b80c 833d f61f b53c 0bcf 45be
00000160: b313 38be 3c61 5d3e 5060 8b3e cdb9 1fbe
00000170: a777 4bbe 9091 6c3d 7539 8e3e ce95 963e
00000180: 719c bc3d 881a 32bd 803c b93c 2054 babc
00000190: 8b7a 7a3e c0ec ca3b 9e89 75be fb7a 7fbd
000001a0: ca7c 353e cfc9 b13d 32ab 1c3e b0d9 203e
000001b0: a6e5 1dbe c8b6 3abe 80cc de3b 40b9 e63c
000001c0: 6228 d6bd 6a64 1abe 0c7c 1fbe e617 023e
000001d0: c057 9cbe 2ae2 12be a011 873e d8e9 5cbd
000001e0: ea58 2dbe c66d 15bd eabb 1d3e c84b ef3d
000001f0: 2000 87be 785e 81be c8d1 3d3d d054 5dbe
00000200: e4d1 7e3e 9ad2 98bd fcac 3c3e a8ee 123e
00000210: 94fb f93d 4005 543e 846a 853e 6231 7bbe
00000220: 155f 44be 4c8b e33d 2db5 5d3e 1e0d 5ebe
00000230: acd6 863d 68f4 733d 0086 ecbc 4887 10bd
00000240: ee76 1e3e d489 c83d 01ee 803e 8244 8f3e
00000250: 7e2f 163e 655c 883e 22bc e9bb 3bb4 e9bd
00000260: f2f6 11be 3a28 80bc 4994 903e e5c1 7dbc
00000270: 829c 55be 6ef3 273e 6f56 5fbe 2a8b 693e
00000280: 8c0b b93d 1921 44be 265e 333e 815c 1bbd
00000290: 0019 f7bb c586 15bd 9f09 a4bf e0f5 efbc
000002a0: a784 24be fe87 103e fa05 82be 6f67 973d
000002b0: f40b d83d 40a6 61be 01fb 76be 3c40 803e
000002c0: cf4d 43be de62 413e 80ac aabd 58e4 58be
000002d0: b23f 88bc 6776 06be 783b 863e 2287 60be
000002e0: 2e0e a6bd 9085 e23d cafa 8c3d c025 11bc
000002f0: c9e2 923d a258 4fbd 5ced 3fbe 30b5 7d3d
00000300: 06d7 fb3d d85c 62be b2bd aa3d b091 e2bc
00000310: a6d8 dfba 6e3f 3e3e 403c bcbc 337e 313d
00000320: b694 8e3e 1019 853e 4525 243e 479c af3d
00000330: 5425 35be 0814 f7bd c5c4 2fbe 5ab1 c4bc
00000340: 04a4 80be b00e 6abe 9c3a c33d 8090 ebbc
00000350: d224 463e ee5e 04be 50a9 fa3c a65d 1d3e
00000360: b4ab 83be 14c2 8abe 5ac9 b2bd 325b 83be
00000370: aa14 c83d 773c 243d 8209 813e c322 8f3e
00000380: 3f7d c03d 1e63 153d 8013 e1bc 0695 cbbd
00000390: d212 333e 70c6 313e 96a8 8dbe a0de 40bd
000003a0: 1809 61be 2a76 6dbe 2878 823e 258b 5ebe
000003b0: e92a 063d 5c22 04be e820 31be 0f15 85bd
000003c0: 236d c03d 9e1d 8f3e f689 233d 8c24 65bd
000003d0: 67d6 d0bb 0552 8dbe 9096 d93d a8b6 6f3e
000003e0: c6f0 c1bd 25e9 613e e33f 143e f012 ad3d
000003f0: 248c 9b3d 8654 44be 0018 a13a a59d 8f3d
0.12153903 -0.2530311 -0.09010945 -0.20896941 0.018540114 -0.13099058 -0.017843217 -0.09421748
-0.20059687 0.15481657 -0.08779104 0.20519221 0.024253577 -0.011620969 -0.2901477 -0.005697876
1.6051444 0.077705175 0.09606388 -0.29016268 0.25632352 0.2715565 0.18768308 0.29401416
0.2252804 -0.11209212 -0.13520901 0.21027547 0.20777434 -0.25481173 0.15499237 0.030615479
-0.29693618 0.29861403 0.26983678 0.2756403 -0.17249344 0.12905094 -0.21663278 -0.11522515
0.15782246 0.16615102 0.07400936 0.05017087 0.28220052 -0.19709384 0.08063263 0.23210585
0.13610137 -0.22587746 0.14761809 0.008696697 0.09442021 -0.21800119 -0.003105898 0.050267775
-0.28055412 -0.09407349 -0.084305026 0.24030139 0.00987348 0.05756527 0.3091365 -0.11360788
0.036090255 0.21928068 -0.03182952 0.24395776 0.060970902 0.20753755 0.16877066 -0.2086794
-0.13305938 0.14952251 0.23691817 0.057967555 -0.16584831 -0.0038232803 0.15272987 0.015200704
0.06568126 0.023583382 -0.030201495 0.26170897 0.008389831 0.0639891 0.022109967 -0.19317262
-0.17976265 0.21619123 0.27221918 -0.15598221 -0.19869862 0.057756007 0.2777821 0.29411167
0.09209526 -0.043482333 0.022611856 -0.022745192 0.24460809 0.0061927736 -0.23978278 -0.062373143
0.17723384 0.0868107 0.15299681 0.15708041 -0.15419635 -0.18233788 0.0067992806 0.028164506
-0.10456921 -0.15077367 -0.15574664 0.12704429 -0.30535698 -0.14344087 0.26380634 -0.05393395
-0.1692845 -0.03648164 0.15403715 0.11684376 -0.26367283 -0.25267386 0.04634264 -0.21614385
0.24884754 -0.07462044 0.18425363 0.14348853 0.12206188 0.20705128 0.26057827 -0.24530557
-0.19176896 0.11110553 0.21651144 -0.21684691 0.06583914 0.059559256 -0.02887249 -0.035285264
0.15475056 0.09791914 0.25181583 0.27981955 0.14666554 0.2663299 -0.007133023 -0.11411329
-0.14254358 -0.015644182 0.28238133 -0.015488123 -0.20860484 0.16401455 -0.21810316 0.22806993
0.090354055 -0.19153251 0.17516384 -0.037930015 -0.007540822 -0.03650548 -1.2815436 -0.029292047
-0.16066228 0.14114377 -0.25395185 0.07392775 0.10549155 -0.22036076 -0.24119188 0.25049007
-0.1907265 0.18885371 -0.08333683 -0.21180856 -0.016631935 -0.13131104 0.26217246 -0.21926549
-0.08108173 0.11060631 0.06883772 -0.008859098 0.07172162 -0.050621636 -0.18742889 0.061940372
0.12296872 -0.2210573 0.08336963 -0.02765736 -0.0017078116 0.18578884 -0.022977948 0.043333244
0.27847832 0.25995684 0.16029842 0.085747294 -0.17690021 -0.120643675 -0.17164905 -0.024010349
-0.25125134 -0.22857165 0.09532663 -0.028755426 0.19349983 -0.12926838 0.030598313 0.15367755
-0.25716937 -0.27101195 -0.08729811 -0.25655514 0.09769566 0.040096726 0.25202566 0.2795621
0.09398889 0.03647148 -0.027475119 -0.09940533 0.17487648 0.17360854 -0.27667683 -0.04708731
-0.21976125 -0.23189607 0.25482297 -0.21732767 0.032755766 -0.12903732 -0.17297709 -0.06498157
0.09395816 0.27952284 0.03992649 -0.055943057 -0.006373215 -0.27601638 0.10624421 0.23409522
-0.09469752 0.22061594 0.14477496 0.08450878 0.07595089 -0.19172868 0.0012290478 0.0701249

sequential/dense_2/MatMul f4 [3, 15]
00000000: 302a 233f eca9 9b3e ce37 a7be 4355 33c0
00000010: 1151 07be bdbe 22be 3044 603f a735 fc3e
00000020: 963f ccbe a97c a5be 3771 ea3e 8524 96c0
00000030: 785e debd 0caf 793e 2a5a bd3e 714f e6bf
00000040: 82e1 8bbe 5bec 26be 0c1d 7b40 36b7 a43e
00000050: 0048 ad3e 89ff 0ec0 1d6f 1dc0 a80b 133e
00000060: 3788 e53e 9ff5 123e 8c55 ff3f d4b0 443e
00000070: 78c2 013f d947 843e a74d f83d 5d24 cebe
00000080: 1c31 c93e 26bb 3ec0 b3e7 bf3d 99b5 063e
00000090: b6a3 243d 95bd ddbd 1372 c4be c474 063f
000000a0: 9cf9 fb3d bd76 e83f 68c5 6abe 9239 943e
000000b0: a477 0d3e
0.6373625 0.30403078 -0.32659763 -2.802079 -0.13214518 -0.15893073 0.87604046 0.49259683
-0.39892262 -0.3232167 0.457895 -4.691958 -0.10857862 0.24383181 0.36982852 -1.7992994
-0.27320486 -0.163011 3.9236479 0.3217103 0.33843994 -2.2343466 -2.4599068 0.14359915
0.44830486 0.1435151 1.9947982 0.1920808 0.5068736 0.25836065 0.12124186 -0.40262118
0.3929528 -2.9801726 0.09370365 0.13155212 0.04019519 -0.108271755 -0.38368282 0.5252192
0.123034686 1.8161236 -0.22926867 0.28950173 0.1381517
